Classifciation_Pizza_steak_sushi/models/05_going_modular_scripts_mode_tinyvgg_model.pth (torch, 40052 bytes, 14 tensors)

conv_block1.0.weight f4 [10, 3, 3, 3]
0.14057508 -0.07494065 -0.092175074 0.06024264 0.21281755 -0.030859634 0.18674347 0.052217692
0.110582985 -0.14541097 0.12698533 -0.15735856 -0.1405999 0.09868887 -0.12641779 0.089176096
-0.018906815 -0.00035215044 -0.04550923 0.1942638 0.057296194 -0.024614416 0.19091898 0.084585086
-0.100909315 -0.06424742 0.11353478 0.17574064 0.05048668 0.12434843 0.05706784 0.04770607
0.16953118 0.16798526 0.13751952 0.0038259844 0.07533051 0.05280508 0.17806678 -0.065964274
0.15238094 0.13724299 0.0848141 -0.0042191297 -0.09643187 0.1166574 -0.00082022476 0.17623974
0.13293132 -0.15990864 -0.07030874 0.11084089 0.017672665 -0.025297245 -0.13964073 0.028029963
0.15800272 -0.10477748 0.0477072 0.03865878 -0.17604421 -0.12763742 -0.020347584 0.029946953
-0.09684413 0.0668741 0.13077374 0.14258784 0.08672485 0.12715048 0.04888544 -0.120819755
0.11834942 -0.07970983 -0.0017758012 -0.039694887 -0.07815989 0.13259226 -0.07281035 0.19323136
0.16117814 -0.005990042 0.1305702 0.04475255 -0.086023174 -0.06254305 -0.034183472 -0.12799574
-0.18271065 -0.041588336 0.1531411 -0.0534342 -0.16082332 0.058221325 0.0066221524 0.20378776
0.16752934 -0.036759663 -0.10099057 -0.016822541 -0.0066100378 0.01988112 -0.018284747 -0.06070543
0.041770972 0.056779765 0.00612062 -0.15965165 -0.1334939 -0.17075874 -0.07103451 -0.11483869
0.13047184 -0.08634307 -0.09346571 -0.15860385 -0.18125772 -0.164012 0.10970669 0.08024006
0.16651879 0.05397002 -0.07959675 0.16159774 0.18040402 0.106072314 0.08254155 -0.042188402
0.20402102 0.20980823 0.16399366 0.10550064 0.0345393 -0.10889782 0.23566717 -0.20203125
-0.13594821 0.038974576 -0.10314707 0.0036925827 0.09206488 0.082565755 -0.045704223 -0.016009595
0.016334586 -0.059195444 -0.0022570707 0.11652582 -0.002235645 0.14277564 -0.18910067 0.14524119
-0.19552676 -0.020679493 0.10694494 -0.21727155 0.1184366 -0.014606281 -0.1668522 0.1173452
-0.036437236 0.13989682 -0.15828814 -0.032865226 0.15609019 0.13559896 0.20381868 0.1436615
0.1498785 0.14416337 -0.08318843 -0.0023862536 0.0032725665 -0.038607962 -0.11829153 0.18773802
-0.11356786 -0.17514892 0.19406396 -0.0058363746 0.14908515 -0.09595212 -0.08387085 0.16828749
0.09623539 0.113972224 0.06316366 0.11302454 -0.036072854 -0.1880102 0.12710609 0.12226829
0.10291512 -0.16691624 0.17356393 -0.18964778 -0.037464917 -0.19102126 -0.18139388 0.0346934
0.1554457 -0.15688668 0.015430953 -0.1664729 -0.0010586578 -0.052439604 -0.17033246 -0.10305257
0.18143736 -0.17887792 -0.16704774 0.18481675 -0.14132652 0.11954655 -0.08406922 0.1304155
0.0045226216 0.03605165 0.18122773 -0.098481685 0.08705805 -0.007354049 -0.05872823 0.21704946
0.22106723 0.035678 -0.023970518 0.15933509 -0.14310326 -0.04622921 0.041867707 -0.15756364
0.17347033 0.16656171 0.00534915 -0.007024907 -0.09525356 0.19875295 -0.010926236 -0.01997384
0.09484301 -0.078657374 -0.06269081 -0.16220634 -0.015318498 -0.08176363 -0.15997025 -0.025864746
-0.124056704 0.099140085 0.04026378 0.19016987 0.14429334 -0.01685425 -0.010690449 0.10168194
00000000: eaf2 0f3e 7c7a 99bd 49c6 bcbd fdc0 763d
00000010: d8ec 593e 58cd fcbc ae39 3f3e 38e2 553d
00000020: 5579 e23d 9de6 14be 7108 023e 9a22 21be
00000030: 6cf9 0fbe 641d ca3d aa73 01be f5a1 b63d
00000040: 77e2 9abc d5a0 b8b9 e367 3abd 17ed 463e
00000050: 6aaf 6a3d 2ca4 c9bc 4480 433e f23a ad3d
00000060: 8ba9 cebd 2794 83bd ec84 e83d 5bf5 333e
00000070: 1fcb 4e3d 64aa fe3d f8bf 693d 7167 433d
00000080: 9599 2d3e 5404 2c3e ebd1 0c3e 5ebd 7a3b
00000090: e246 9a3d 244a 583d 2357 363e 4718 87bd
000000a0: c009 1c3e 6d89 0c3e 04b3 ad3d a040 8abb
000000b0: 127e c5bd 13ea ee3d 5a04 57ba 3178 343e
000000c0: 261f 083e 17bf 23be 07fe 8fbd 8c00 e33d
000000d0: 44c6 903c 2b3c cfbc fbfd 0ebe 189f e53c
000000e0: 77cb 213e 9395 d6bd a068 433d ab58 1e3d
000000f0: ef44 34be 62b3 02be faaf a6bc 5053 f53c
00000100: 3756 c6bd 4af5 883d 8de9 053e 8c02 123e
00000110: cc9c b13d bc33 023e 193c 483d 5970 f7bd
00000120: 2e61 f23d e83e a3bd 00c2 e8ba 1b97 22bd
00000130: 4b12 a0bd 44c6 073e 981d 95bd 71de 453e
00000140: e20b 253e 1d48 c4bb 32b4 053e 734e 373d
00000150: eb2c b0bd 9216 80bd f803 0cbd 5111 03be
00000160: 8018 3bbe 8858 2abd 05d1 1c3e d2dd 5abd
00000170: deae 24be 7c79 6e3d a4fe d83b bdad 503e
00000180: d08c 2b3e 4d91 16bd 25d4 cebd 6dcf 89bc
00000190: 0499 d8bb bbdd a23c e5c9 95bc 42a6 78bd
000001a0: 0a18 2b3d e691 683d 7b8f c83b b97b 23be
000001b0: a0b2 08be 61db 2ebe 8b7a 91bd 8c30 ebbd
000001c0: 699a 053e a3d4 b0bd f36a bfbd 0c69 22be
000001d0: a09b 39be c3f2 27be e7ad e03d e754 a43d
000001e0: e783 2a3e ab0f 5d3d 9f03 a3bd e179 253e
000001f0: d5bb 383e 713c d93d 8b0b a93d bfcd 2cbd
00000200: e3ea 503e f8d7 563e f4ed 273e b810 d83d
00000210: 1579 0d3d d205 dfbd bc52 713e 48e1 4ebe
00000220: 0236 0bbe cea3 1f3d c53e d3bd 42ff 713b
00000230: 838c bc3d 3c18 a93d 5a34 3bbd 8e26 83bc
00000240: 1cd0 853c ec76 72bd 5deb 13bb 17a5 ee3d
00000250: e683 12bb c733 123e 9ba3 41be 1bba 143e
00000260: 2b38 48be 0a68 a9bc f305 db3d 6f7c 5ebe
00000270: e38e f23d 2f4f 6fbc 4edb 2abe ae52 f03d
00000280: 363f 15bd 1d41 0f3e 4916 22be b09d 06bd
00000290: 1bd6 1f3e 74da 0a3e d8b5 503e 001c 133e
000002a0: c079 193e 909f 133e b25e aabd b162 1cbb
000002b0: 8e78 563b 6223 1ebd d442 f2bd 653e 403e
000002c0: 4496 e8bd 3d5a 33be b4b8 463e 0f3f bfbb
000002d0: c7a9 183e 8c82 c4bd 7bc4 abbd 8e53 2c3e
000002e0: 0f17 c53d 456a e93d f35b 813d 6979 e73d
000002f0: 21c1 13bd bf85 40be 1928 023e cc67 fa3d
00000300: 2ac5 d23d 17ec 2abe beba 313e 0733 42be
00000310: d074 19bd 149b 43be 51bf 39be ab1a 0e3d
00000320: 282d 1f3e e7a6 20be 1cd2 7c3c df77 2abe
00000330: a9c2 8aba e9ca 56bd a26b 2ebe 3a0d d3bd
00000340: b7ca 393e c62b 37be 900e 2bbe 9a40 3d3e
00000350: e6b7 10be d2d4 f43d 7c2c acbd a48b 053e
00000360: 8032 943b e5aa 133d c393 393e c4b0 c9bd
00000370: 7e4b b23d 3cfa f0bb 038d 70bd 3742 5e3e
00000380: 735f 623e 1823 123d d25d c4bc bd28 233e
00000390: a989 12be d75a 3dbd 797d 2b3d 5d58 21be
000003a0: 35a2 313e 278f 2a3e ec47 af3b 3131 e6bb
000003b0: 4c14 c3bd e585 4b3e f503 33bc 2ea0 a3bc
000003c0: 0d3d c23d 1e17 a1bd 0a64 80bd 6b19 26be
000003d0: 70fa 7abc b173 a7bd 3ecf 23be 4ee2 d3bc
000003e0: 7111 febd f509 cb3d a2eb 243d e4bb 423e
000003f0: a2c1 133e ed11 8abc fe26 2fbc 9f3e d03d

conv_block1.0.bias f4 [10]
-0.010280147 -0.0663413 0.082363136 0.21208556 0.034432992 0.13625772 -0.11393292 -0.19989322
-0.04941562 0.13113865
00000000: 106e 28bc f3dd 87bd 01ae a83d f52c 593e
00000010: 9c09 0d3d 2587 0b3e aa55 e9bd cfb0 4cbe
00000020: 0868 4abd 3649 063e

conv_block1.3.weight f4 [10, 10, 3, 3]
0.0048162234 -0.006043603 0.07739432 0.039329145 -0.04226652 0.004981779 -0.013416346 -0.055299267
0.14604296 -0.018541621 0.007246429 -0.0139041785 0.10763527 0.005899568 -0.07809981 -0.04974646
0.11036628 0.030019565 0.0697797 0.05810793 0.09680018 0.052961953 0.0361828 -0.03969962
0.11342161 -0.06473662 0.030472014 0.04157922 -0.13450886 -0.08390203 -0.10461289 0.030259732
-0.022432486 -0.08826897 -0.014582987 -0.16679585 0.08036132 0.03204145 -0.024484564 0.14199097
-0.014083631 0.11797952 0.16272625 -0.0011432667 0.073023826 0.05933899 0.032335702 0.02239585
-0.06788412 0.06552985 0.015661526 -0.08973922 -0.03246807 -0.07073972 0.10408447 0.10132931
-0.014597916 0.02778222 -0.016604355 0.061128397 0.023055844 0.18986684 -0.02276264 -0.09268264
-0.07996663 -0.08813728 -0.03442965 -0.001119747 -0.079693414 -0.084807776 0.030694766 0.098574154
-0.09091195 0.09716645 0.11898552 -0.04078067 -0.013842914 0.10669308 0.01427478 0.11894919
-0.041566037 -0.04217536 0.016428225 -0.07823327 0.016200522 -0.06667995 0.044740397 0.024506949
0.04186676 0.06421162 -0.09671324 -0.045744482 -0.095564015 0.062955104 0.071906656 -0.10581666
-0.02625791 -0.0822612 -0.111223385 0.07827625 -0.04840106 -0.055629283 -0.08145359 -0.059801944
-0.085994564 0.088909455 0.018859556 -0.026430918 -0.09632238 -0.0019076404 -0.024002247 0.06519717
-0.0946131 -0.034304265 0.075022586 -0.07294038 -0.04647682 0.032777537 -0.012924494 0.028662635
0.022933936 -0.028496884 0.03652438 -0.03170622 -0.09269262 -0.07643748 0.025010353 -0.083560035
-0.10609506 0.071565084 -0.04830632 -0.047689963 -0.07311301 0.041258264 -0.08946498 0.009943993
-0.0954572 0.068718955 -0.010360637 0.025590977 -0.045351125 -0.07616622 -0.013414314 0.02574072
-0.10889703 0.09508355 0.037788577 -0.11342042 -0.031014819 0.03965845 -0.082605064 -0.07224643
0.0548354 0.066995874 -0.096403375 -0.036623545 0.035579693 0.0187138 -0.08910872 0.021421848
-0.045305807 -0.005753159 0.026016533 -0.027214851 -0.018840235 -0.084925205 -0.0322998 -0.045040842
-0.07936351 0.037699457 -0.07891504 0.06686226 -0.11674647 -0.08793204 -0.030720552 0.041756447
-0.12159673 -0.07058122 0.015163373 -0.045002185 -0.009719689 0.08065005 0.1016847 0.016878545
0.012686477 -0.0665615 0.033493895 -0.029837865 0.03798926 0.016274238 0.08114531 -0.036435533
-0.032016587 -0.00770777 0.095661655 -0.04987129 -0.06043302 0.011860681 0.023515914 0.03912587
-0.10059657 0.08456233 0.08064757 -0.06756653 -0.0017588467 0.07376485 -0.025092281 -0.02702183
-0.07861124 0.009420977 -0.061568223 -0.08613045 -0.0051663592 -0.14426745 -0.12623002 -0.085747965
0.051081248 0.15322249 0.16246565 0.023119377 0.02362901 0.20113814 0.1681348 0.15744045
0.07793555 -0.09530694 0.053999145 -0.10065426 0.0676697 -0.05848105 0.018548483 0.0059020626
0.03595592 -0.00042620406 0.061771046 -0.06896047 0.009724645 0.10882222 0.10043622 0.1321981
0.11732944 -0.02568647 -0.060267303 0.026336834 0.07457104 -0.051470496 0.034396738 0.042960256
0.03140993 -0.08010543 -0.031812746 0.046883978 0.08722082 0.01266074 0.08308072 -0.05122704
00000000: 69d1 9d3b 6b09 c6bb ea80 9e3d 9917 213d
00000010: a91f 2dbd 313e a33b 3cd0 5bbc 7c81 62bd
00000020: 498c 153e 99e4 97bc 7473 ed3b 5ace 63bc
00000030: e16f dc3d 2a51 c13b cbf2 9fbd f2c2 4bbd
00000040: b707 e23d 97eb f53c a9e8 8e3d 9502 6e3d
00000050: 2c3f c63d a2ee 583d 6a34 143d 129c 22bd
00000060: 9749 e83d a294 84bd 72a0 f93c f94e 2a3d
00000070: b1bc 09be d4d4 abbd 483f d6bd 42e3 f73c
00000080: 55c4 b7bc 5dc6 b4bd 7bed 6ebc 88cc 2abe
00000090: 7a94 a43d e53d 033d da93 c8bc 1566 113e
000000a0: 08bf 66bc 3f9f f13d b6a1 263e aad9 95ba
000000b0: 848d 953d 710d 733d 7172 043d 8077 b73c
000000c0: d406 8bbd 8434 863d 9a4c 803c 32c9 b7bd
000000d0: 3dfd 04bd fcdf 90bd 3d2a d53d be85 cf3d
000000e0: 192c 6fbc 8a97 e33c db05 88bc c561 7a3d
000000f0: 9cdf bc3c 746c 423e b778 babc 65d0 bdbd
00000100: 8bc5 a3bd 5181 b4bd 1b06 0dbd 79c4 92ba
00000110: 4d36 a3bd b3af adbd 9773 fb3c 3fe1 c93d
00000120: 0b30 babd 34ff c63d aeae f33d a209 27bd
00000130: 64cd 62bc e781 da3d c4e0 693c a29b f33d
00000140: 2641 2abd 12c0 2cbd 7c94 863c c438 a0bd
00000150: f5b6 843c 7f8f 88bd b541 373d ccc2 c83c
00000160: 7b7c 2b3d 6281 833d 9711 c6bd 915e 3bbd
00000170: 11b7 c3bd 9bee 803d cc43 933d 68b6 d8bd
00000180: d41a d7bc 8f78 a8bd 16c9 e3bd 4c4f a03d
00000190: 3140 46bd 88db 63bd 24d1 a6bd e2f2 74bd
000001a0: eb1d b0bd 2916 b63d 5b7f 9a3c a785 d8bc
000001b0: ab44 c5bd ca09 faba 5ca0 c4bc 1886 853d
000001c0: 83c4 c1bd a182 0cbd 71a5 993d c461 95bd
000001d0: 7a5e 3ebd bd41 063d 42c1 53bc e7cd ea3c
000001e0: f3df bb3c 4c72 e9bc 979a 153d 62de 01bd
000001f0: a1d5 bdbd 418b 9cbd 83e2 cc3c 8621 abbd
00000200: 5e48 d9bd b790 923d d9dc 45bd 8d56 43bd
00000210: 46bc 95bd 6dfe 283d 6a39 b7bd 21ec 223c
00000220: 117f c3bd 86bc 8c3d a9bf 29bc 2ba4 d13c
00000230: 1ac2 39bd 09fd 9bbd b6c7 5bbc 34de d23c
00000240: 6805 dfbd 2abb c23d 32c8 1a3d f748 e8bd
00000250: ca12 febc e670 223d d82c a9bd f0f5 93bd
00000260: 169b 603d 2235 893d 226f c5bd 9202 16bd
00000270: 03bc 113d af4d 993c a27e b6bd df7c af3c
00000280: 9592 39bd ff84 bcbb a020 d53c aef1 debc
00000290: d656 9abc 44ed adbd cc4c 04bd bf7c 38bd
000002a0: 5689 a2bd bf6a 1a3d 359e a1bd 15ef 883d
000002b0: c618 efbd b715 b4bd aba9 fbbc cf08 2b3d
000002c0: b507 f9bd e38c 90bd cc6f 783c 3654 38bd
000002d0: 553f 1fbc da2b a53d 1140 d03d e044 8a3c
000002e0: f1da 4f3c 6551 88bd e530 093d 8a6e f4bc
000002f0: a09a 1b3d 8d51 853c 832f a63d 6d3d 15bd
00000300: d323 03bd 7691 fcbb 42ea c33d d645 4cbd
00000310: 9d88 77bd 4d53 423c 72a4 c03c 7342 203d
00000320: 9305 cebd 042f ad3d 8e2a a53d 5260 8abd
00000330: 1a89 e6ba 0712 973d 548e cdbc e35c ddbc
00000340: eefe a0bd 715a 1a3c f62e 7cbd 2965 b0bd
00000350: 904a a9bb d9ba 13be 7142 01be a19c afbd
00000360: 923a 513d 5be6 1c3e 655d 263e d964 bd3c
00000370: a091 c13c 28f7 4d3e 872b 2c3e 1238 213e
00000380: ac9c 9f3d 4930 c3bd 352e 5d3d d223 cebd
00000390: 6996 8a3d d389 6fbd fdf2 973c 1766 c13b
000003a0: 8446 133d 2474 dfb9 a303 7d3d 263b 8dbd
000003b0: 1e54 1f3c 2fde de3d 81b1 cd3d f05e 073e
000003c0: 6b4a f03d 6f6c d2bc d9da 76bd 58c0 d73c
000003d0: b4b8 983d bad2 52bd 98e3 0c3d 18f7 2f3d
000003e0: b3a7 003d 510e a4bd 154e 02bd 6a09 403d
000003f0: d4a0 b23d fe6e 4f3c 3926 aa3d 72d3 51bd

conv_block1.3.bias f4 [10]
-0.029133461 -0.019289898 0.045137778 -0.015958166 -0.058855537 0.009205899 -0.07951218 0.013406162
0.0071888794 -0.021861402
00000000: 4ca9 eebc d905 9ebc 64e2 383d b3ba 82bc
00000010: 8112 71bd 57d4 163c 48d7 a2bd 85a5 5b3c
00000020: b190 eb3b af16 b3bc

conv_block2.0.weight f4 [10, 10, 3, 3]
-0.04934891 -0.010691567 0.014676818 0.07557719 0.032622647 -0.092592776 -0.11215699 0.027268892
0.00178054 -0.100926794 0.09249471 -0.01914 -0.09042749 -0.084489994 0.07800452 -0.06964268
0.023054224 0.10978603 -0.032411404 -0.014005058 -0.103600584 0.02879988 -0.031581625 0.08042022
-0.12511465 -0.11351426 -0.093682826 -0.018703392 0.034975506 0.14190125 0.012407449 0.11753757
0.14684068 0.2023011 0.12750292 0.22772276 0.13334519 0.12127292 0.043885443 0.06338727
0.022617163 0.09875795 -0.09442121 0.0018224665 -0.059983075 0.08795516 0.10027183 0.08258645
0.111878544 -0.0061374395 0.048189446 0.08363009 -0.03903419 0.012855608 0.048710156 0.08296814
-0.054118183 -0.030359471 -0.059594374 -0.108201034 0.039068703 -0.0015037498 -0.09428319 0.004328316
0.09598875 -0.014260472 -0.027711788 0.024501808 -0.036204528 0.050094467 -0.049984362 0.0343397
0.01684446 0.07853848 0.106677674 0.09003306 0.15166642 0.11551698 0.08827137 0.011257167
0.102314174 0.008799208 0.043406423 0.071718276 0.06232866 -0.06319341 0.040128518 0.016783508
0.014818641 -0.031575497 -0.050298434 0.034517445 -0.05692047 -0.14232022 -0.01803802 -0.13098197
-0.056828525 0.001841944 0.063435175 -0.06975544 -0.0022714876 -0.054685693 -0.074367546 0.0014286102
-0.028726827 0.07613976 0.097532034 -0.08505804 -0.014841065 -0.10604424 -0.007299417 -0.044226043
0.04990608 -0.05205898 -0.11045421 -0.07627292 -0.030586135 -0.036812373 0.0817501 0.033324867
-0.095481165 0.07379632 -0.043730836 -0.05236913 0.0152231315 -0.027094657 -0.095054016 0.0646098
-0.11961702 -0.017320542 -0.056197442 0.009550685 -0.116247654 -0.059103053 0.05360098 -0.0717132
-0.14686897 -0.035038903 -0.05496489 -0.100740395 -0.09500695 -0.0073149246 -0.040763065 -0.09395973
0.027523026 0.02369928 -0.12011665 -0.083513506 0.0125608705 0.0034382383 -0.11255316 -0.01642358
-0.024786726 0.010548637 -0.11770714 0.04593086 -0.11037318 -0.07506566 -0.10810359 -0.08386403
0.034053523 -0.030201672 0.04517702 -0.1176544 0.053692997 0.074963585 0.040895533 0.008995248
0.07701752 0.113103695 -0.015725965 0.06477311 0.044404436 0.07579696 0.05721249 -0.070675
-0.017938405 0.083054 -0.082055405 -0.006271863 0.013356019 0.010024734 -0.09402889 -0.049708683
-0.025347939 0.012066143 0.060085252 0.14674008 0.09311469 -0.043110214 0.088806964 -0.095849775
-0.09245192 -0.031117933 -0.11521565 0.056700945 -0.09175768 -0.03168749 -0.074916266 -0.10948608
-0.08752281 0.021351151 -0.08058223 0.07746893 -0.00958288 -0.04718839 0.14761923 0.0792262
-0.052929446 -0.04210905 -0.05538054 0.050204094 0.0022318745 -0.07367758 0.019673219 -0.09238822
-0.0936558 -0.096708804 -0.12694857 -0.036726903 0.034889612 0.09565395 -0.0022231285 0.13154651
-0.03061866 -0.0391659 -0.020429092 0.010141929 -0.07566845 0.07410946 -0.08747211 0.133835
0.07883432 0.12969846 -0.11451173 -0.095001504 0.07344264 0.0028243118 0.052534755 -0.016125334
0.12910067 0.04416723 0.07259217 -0.09056911 -0.12505744 -0.12907754 0.066842586 0.104820095
-0.06275543 0.09805613 0.083781965 -0.014638757 -0.028348744 -0.060551524 0.049470037 -0.0498622
00000000: 1522 4abd af2b 2fbc 0977 703c 37c8 9a3d
00000010: 539f 053d 48a1 bdbd 90b2 e5bd 0363 df3c
00000020: 0261 e93a b5b2 cebd de6d bd3d 7dcb 9cbc
00000030: 0c32 b9bd 1709 adbd d5c0 9f3d d2a0 8ebd
00000040: 36dc bc3c 80d7 e03d d2c1 04bd 7975 65bc
00000050: 8b2c d4bd baed eb3c bc5b 01bd 5bb3 a43d
00000060: 0e1e 00be 2a7a e8bd c8dc bfbd db37 99bc
00000070: 7a42 0f3d 904e 113e 9d48 4b3c 8ab7 f03d
00000080: 675d 163e 0528 4f3e 2090 023e 2830 693e
00000090: a48b 083e f05d f83d 39c1 333d 2fd1 813d
000000a0: a147 b93c 9c41 ca3d e85f c1bd d4df ee3a
000000b0: d0b0 75bd d621 b43d 515b cd3d 1623 a93d
000000c0: 9420 e53d 931c c9bb 4c62 453d 4146 ab3d
000000d0: 51e2 1fbd 54a0 523c 4d84 473d 33eb a93d
000000e0: 07ab 5dbd 6db4 f8bc 3b19 74bd 8198 ddbd
000000f0: 8106 203d 7819 c5ba 8c17 c1bd 8cd4 8d3b
00000100: c095 c43d c1a4 69bc d503 e3bc 04b8 c83c
00000110: 334b 14bd db2f 4d3d 67bc 4cbd c9a7 0c3d
00000120: 65fd 893c c8d8 a03d d379 da3d 4163 b83d
00000130: 714e 1b3e 2b94 ec3d 9fc7 b43d fb6f 383c
00000140: 188a d13d 8e2a 103c efca 313d 08e1 923d
00000150: 564c 7f3d 8c6b 81bd cd5d 243d 917d 893c
00000160: e3c9 723c 4f55 01bd bb05 4ebd 2a62 0d3d
00000170: 7025 69bd 64bc 11be 78c4 93bc 2320 06be
00000180: 07c5 68bd 626d f13a 4dea 813d f1db 8ebd
00000190: 3ddd 14bb 1bfe 5fbd 034e 98bd 3440 bb3a
000001a0: 8654 ebbc 2aef 9b3d e0be c73d e932 aebd
000001b0: f027 73bc b92d d9bd f32f efbb 5e26 35bd
000001c0: 516a 4c3d cc3b 55bd d135 e2bd fa34 9cbd
000001d0: c68f fabc 92c8 16bd 996c a73d a87f 083d
000001e0: a18b c3bd 8622 973d 1b1f 33bd 0381 56bd
000001f0: 716a 793c 9df5 ddbc aeab c2bd 2552 843d
00000200: c5f9 f4bd cfe3 8dbc 4a2f 66bd 7a7a 1c3c
00000210: 4013 eebd 0b16 72bd b48c 5b3d 5fde 92bd
00000220: d264 16be f484 0fbd dd22 61bd fb50 cebd
00000230: 0193 c2bd 09b2 efbb 2cf7 26bd f56d c0bd
00000240: f877 e13c fe24 c23c b8ff f5bd 2109 abbd
00000250: 1ccc 4d3c 1154 613b 4582 e6bd be8a 86bc
00000260: 880d cbbc 31d4 2c3c 7110 f1bd ff21 3c3d
00000270: 550b e2bd 06bc 99bd 6a65 ddbd e8c0 abbd
00000280: b57b 0b3d 7f69 f7bc 8a0b 393d caf4 f0bd
00000290: 30ed 5b3d 8286 993d 1382 273d ce60 133c
000002a0: 5dbb 9d3d e9a2 e73d bdd3 80bc c4a7 843d
000002b0: 6de1 353d 703b 9b3d a557 6a3d 0ebe 90bd
000002c0: 90f3 92bc 3718 aa3d aa0c a8bd 3384 cdbb
000002d0: 34d3 5a3c c83e 243c 3892 c0bd 559b 4bbd
000002e0: 7ba6 cfbc 12b1 453c f41b 763d 0843 163e
000002f0: eab2 be3d 5694 30bd 6de0 b53d e34c c4bd
00000300: 6f57 bdbd 09eb febc 2ff6 ebbd 403f 683d
00000310: 73eb bbbd beca 01bd b36d 99bd 3d3a e0bd
00000320: 293f b3bd 9ce8 ae3c 4c08 a5bd 08a8 9e3d
00000330: 8301 1dbc 9d48 41bd 7f29 173e 5941 a23d
00000340: 8ccc 58bd 8a7a 2cbd b5d6 62bd cfa2 4d3d
00000350: a444 123b 45e4 96bd bb29 a13c 0936 bdbd
00000360: 9dce bfbd 440f c6bd cefe 01be f36e 16bd
00000370: 69e8 0e3d 38e6 c33d e8b1 11bb 21b4 063e
00000380: fcd3 fabc 6c6c 20bd e95a a7bc 552a 263c
00000390: 0ff8 9abd b3c6 973d 9424 b3bd 0b0c 093e
000003a0: e373 a13d accf 043e 2085 eabd 2690 c2bd
000003b0: 1869 963d 1718 393b af2e 573d 4719 84bc
000003c0: f732 043e b3e8 343d 34ab 943d 4c7c b9bd
000003d0: 0f0f 00be e72c 04be c4e4 883d ebab d63d
000003e0: eb85 80bd a7d1 c83d e195 ab3d 66d7 6fbc
000003f0: a03b e8bc e004 78bd 18a1 4a3d 4e3c 4cbd

conv_block2.0.bias f4 [10]
-0.012758186 0.02947435 -0.020874115 0.1040406 -0.075722195 0.060015704 0.0742838 0.09572605
-0.042445913 -0.0789277
00000000: b607 51bc 3174 f13c 3100 abbc 3d13 d53d
00000010: 3d14 9bbd 07d3 753d 1b22 983d 050c c43d
00000020: c4db 2dbd d9a4 a1bd

conv_block2.2.weight f4 [10, 10, 3, 3]
0.1354106 -0.013908693 0.11015878 0.0879771 0.051449332 -0.041347183 -0.094575234 -0.14603779
0.046672367 0.033085752 -0.021981597 0.08822085 -0.059914265 0.031992894 0.070524506 0.04560817
-0.12979908 0.046729825 -0.12726712 0.0430392 -0.07835288 0.017973889 0.036987606 -0.02996095
0.13554987 0.13355984 0.13963239 0.0512377 0.034487184 0.12039701 0.09272181 0.0580358
0.069689505 0.080661274 0.007217876 0.09556121 0.07942384 0.010677233 0.19458844 0.0839903
-0.0075979345 0.1356561 0.04770005 0.019087046 -0.03895432 -0.02763726 0.06384463 0.10786037
-0.003727502 0.10188443 0.01655182 0.17735532 0.050687425 0.063645594 0.06356606 -0.08823475
-0.0105170235 -0.013737758 0.042827465 0.08468878 -0.116051994 -0.10872948 -0.0330702 -0.028514396
-0.06415299 -0.049491424 -0.10587831 0.1039235 -0.059591573 -0.09112523 -0.11874333 0.07570419
-0.0030743019 -0.08238214 0.022179877 -0.00018230408 0.017923087 -0.017298581 -0.09636016 0.07835054
-0.047130607 0.024985477 0.016638627 -0.040655464 0.07641685 -0.10584592 0.046758637 0.039878204
-0.048046805 -0.048131634 -0.106985636 0.00787976 -0.10048878 0.03805029 0.05588305 -0.047595464
-0.045282718 0.028166302 0.06661012 0.05983906 -0.033792716 0.026760519 0.13068348 -0.029570816
0.017205706 -0.0649121 -0.065068714 -0.054983255 0.11827575 0.037571058 -0.049019765 0.06192313
0.16889839 0.11560702 0.22425725 0.18086132 0.00845669 0.09611342 0.094619475 0.04120829
-0.016679354 0.026425611 0.039070804 -0.051118627 0.12750952 -0.06476205 -0.033199262 0.103141524
0.09375158 0.037653014 0.11175142 -0.039933387 -0.041743662 -0.036918886 0.07433326 0.01938858
0.12487458 -0.008268061 -0.005122969 0.0007430247 -0.019307934 0.06765629 0.025744816 0.061202236
0.1076035 0.063846126 -0.040721077 0.013049106 0.08095814 0.06876389 -0.0019111161 -0.03899755
-0.059218384 -0.018905714 0.040830262 0.082900986 0.06950443 -0.08180523 -0.055968657 0.07227924
-0.07641098 0.06261433 -0.072280884 -0.08294097 -0.023311539 -0.09785795 -0.053735297 -0.07943165
-0.06703784 -0.099612705 0.07315992 0.08775937 -0.11209271 -0.044618595 -0.08709619 0.036856305
-0.08505605 -0.03126759 0.1055059 0.046444625 -0.08311435 0.06553138 0.06414055 0.052186817
0.0045948564 0.14085779 0.10510884 0.122562036 0.0054875724 -0.010609815 0.09352159 0.091928564
-0.080845155 -0.0004778788 0.009000049 -0.06443883 -0.0038738586 0.09793139 -0.0839799 -0.040525433
0.050907966 -0.12874982 -0.06939533 -0.06813702 -0.044824116 -0.1512894 -0.12199426 -0.0012426146
-0.017528024 -0.06158728 0.06968736 0.06844858 0.026268257 -0.06138569 0.06450665 -0.048286203
0.026911398 0.02266174 -0.06656818 0.019905457 -0.0742386 -0.110515244 0.036567483 0.005949525
-0.111062676 -0.0061923754 0.0062239035 0.028136287 -0.109445095 -0.00013510107 -0.08383281 0.0688797
0.0782677 -0.056183778 0.041167896 0.035722326 0.08407336 -0.04791064 0.09828887 -0.07834868
0.0396571 0.111230545 0.12476526 -0.07702867 -0.032486167 -0.08331082 0.069954276 0.08481463
-0.0016131887 0.07639476 -0.083845146 -0.06885725 -0.032659385 -0.081190646 0.102861986 -0.031114185
00000000: 14a9 0a3e 49e1 63bc ed9a e13d 562d b43d
00000010: 89bc 523d aa5b 29bd a9b0 c1bd ee8a 15be
00000020: 862b 3f3d ed84 073d c012 b4bc 22ad b43d
00000030: a968 75bd fb0a 033d 276f 903d a2cf 3a3d
00000040: 0dea 04be c667 3f3d 5052 02be df49 303d
00000050: 7a77 a0bd fa3d 933c 5180 173d ab70 f5bc
00000060: 96cd 0a3e e9c3 083e cbfb 0e3e 9fde 513d
00000070: 6f42 0d3d b592 f63d efe4 bd3d f2b6 6d3d
00000080: 5fb9 8e3d bd31 a53d ef83 ec3b 98b5 c33d
00000090: f7a8 a23d 90ef 2e3c 3142 473e 1b03 ac3d
000000a0: 18f8 f8bb 6fe9 0a3e 2161 433d 705c 9c3c
000000b0: 918e 1fbd 8967 e2bc f9c0 823d e6e5 dc3d
000000c0: 1b49 74bb c9a8 d03d af97 873c a29c 353e
000000d0: 9e9d 4f3d 9f58 823d ec2e 823d 6cb4 b4bd
000000e0: 984f 2cbc 5514 61bc da6b 2f3d 5071 ad3d
000000f0: abac edbd 90ad debd 9e74 07bd 0697 e9bc
00000100: a562 83bd 85b7 4abd bad6 d8bd d8d5 d43d
00000110: 4b16 74bd dd9f babd b42f f3bd cc0a 9b3d
00000120: 3a7a 49bb f8b7 a8bd 93b2 b53c e128 3fb9
00000130: 70d3 923c c1b5 8dbc 7a58 c5bd 3f76 a03d
00000140: 060c 41bd 58ae cc3c bb4d 883c 5886 26bd
00000150: 7080 9c3d bfc5 d8bd fc85 3f3d 5457 233d
00000160: bacc 44bd ad25 45bd 491b dbbd 1c1a 013c
00000170: 10cd cdbd 9fda 1b3d a0e5 643d 76f3 42bd
00000180: 5f7a 39bd 04bd e63c e36a 883d cd19 753d
00000190: 3b6a 0abd e038 db3c e4d1 053e 7f3e f2bc
000001a0: fbf2 8c3c a3f0 84bd bf42 85bd 1f36 61bd
000001b0: 8e3a f23d 1ce4 193d f3c8 48bd 1ca3 7d3d
000001c0: b3f3 2c3e 60c3 ec3d b1a3 653e b633 393e
000001d0: ee8d 0a3c 1dd7 c43d dbc7 c13d 06ca 283d
000001e0: 24a3 88bc 867a d83c b508 203d c461 51bd
000001f0: db91 023e f7a1 84bd f3fb 07bd dd3b d33d
00000200: d400 c03d 0c3a 1a3d eedd e43d 3191 23bd
00000210: 67fb 2abd 4238 17bd 093c 983d cdd4 9e3c
00000220: 3ebe ff3d c376 07bc 94de a7bb 8bc7 423a
00000230: ac2b 9ebc 628f 8a3d cbe6 d23c 32af 7a3d
00000240: 395f dc3d c2c1 823d 25cb 26bd ebcb 553c
00000250: 62cd a53d 15d4 8c3d 6a7e faba e5bb 1fbd
00000260: fa8e 72bd 28e0 9abc a23d 273d fec7 a93d
00000270: 5758 8e3d 8089 a7bd 643f 65bd 2307 943d
00000280: 5c7d 9cbd f13b 803d 0008 94bd f5dc a9bd
00000290: d7f7 bebc c069 c8bd 8b19 5cbd 10ad a2bd
000002a0: 234b 89bd bf01 ccbd ded4 953d 2fbb b33d
000002b0: dd90 e5bd fdc1 36bd 7d5f b2bd a3f6 163d
000002c0: de31 aebd 7212 00bd 7a13 d83d b83c 3e3d
000002d0: db37 aabd 5135 863d 1f5c 833d d8c1 553d
000002e0: 7390 963b 063d 103e 4e43 d73d ce01 fb3d
000002f0: 18d1 b33b cad4 2dbc 3f88 bf3d 0b45 bc3d
00000300: 2592 a5bd cf8b fab9 f174 133c 81f8 83bd
00000310: 90e0 7dbb 4190 c83d a7fd abbd fffd 25bd
00000320: df84 503d fed6 03be 241f 8ebd 6c8b 8bbd
00000330: 7e99 37bd 9ceb 1abe 20d8 f9bd 3adf a2ba
00000340: ee96 8fbc f242 7cbd 3fb8 8e3d c52e 8c3d
00000350: 8730 d73c 906f 7bbd 101c 843d c1c7 45bd
00000360: 4b75 dc3c 1da5 b93c e654 88bd c510 a33c
00000370: 680a 98bd d155 e2bd c9c7 153d 3cf4 c23b
00000380: d474 e3bd 69e9 cabb e3f1 cb3b 127e e63c
00000390: c024 e0bd eba9 0db9 89b0 abbd cd10 8d3d
000003a0: d14a a03d f620 66bd ab9f 283d 9351 123d
000003b0: a72e ac3d f23d 44bd ad4b c93d 4675 a0bd
000003c0: 7c6f 223d d7cc e33d ee84 ff3d 35c1 9dbd
000003d0: 3710 05bd dd9e aabd 3044 8f3d 4bb3 ad3d
000003e0: a171 d3ba db74 9c3d 01b7 abbd 0805 8dbd
000003f0: d9c5 05bd 4847 a6bd 4ea9 d23d 2de3 febc

conv_block2.2.bias f4 [10]
-0.013608239 0.109591074 -0.026756564 -0.0883912 0.10556478 -0.010120281 -0.022544427 0.092478
-0.030339701 -0.08491369
00000000: 17f5 5ebc 4971 e03d 9530 dbbc 7206 b5bd
00000010: 5932 d83d 89cf 25bc 17af b8bc 1b65 bd3d
00000020: f78a f8bc 3be7 adbd

conv_block2.4.weight f4 [10, 10, 3, 3]
-0.12214235 -0.018397614 0.07196779 -0.09286241 -0.0444226 0.12667014 -0.019498214 0.10182091
0.032836422 0.043519996 0.06650883 -0.06768644 0.08634432 -0.06993817 -0.11222878 -0.10231496
-0.07540045 0.06417217 0.10563408 -0.003641018 0.08005773 0.07132981 0.012042164 0.029853167
0.09604347 0.04940577 0.07406826 -0.05778367 0.08664601 -0.017742954 0.14062056 -0.049269482
0.12491828 0.071002804 0.06008652 -0.068449564 0.039544623 -0.088370346 -0.10275879 0.03653987
-0.14064886 -0.06925524 -0.07686546 -0.019976167 -0.13736932 0.09613363 0.0009996475 0.09506894
-0.020574296 0.15062733 0.11816377 0.069841124 -0.05022454 0.012005617 0.06873828 -0.028548611
0.051100545 -0.047481343 0.05647844 0.013791138 -0.05660153 -0.015945883 0.106188044 -0.059766576
0.070118494 0.02365604 0.046452217 0.0384581 -0.0074500693 0.0236528 0.03539043 0.004375195
-0.00422811 -0.05406762 -0.0516247 -0.13027787 -0.065048166 0.019310499 -0.052773826 -0.04011998
-0.08098937 -0.09165989 -0.009012676 0.081448205 0.030229129 -0.041856997 -0.026375521 0.01781041
0.015741186 -0.01832759 -0.013334411 -0.02718518 -0.002209056 0.031805117 0.010482451 0.06297682
0.09476117 0.031516917 -0.012736507 -0.0698463 -0.08464312 0.04871856 0.059283014 0.009300294
-0.06300745 -0.049848832 -0.050008897 -0.054560144 -0.095515005 0.030505106 0.084130295 -0.05601482
-0.036271457 0.05274687 0.05371199 0.04823357 -0.08213049 -0.09088244 0.008877278 -0.03841341
0.07654565 -0.009667975 -0.03985177 0.05821151 -0.033083558 -0.038459104 -0.028422851 -0.1012782
0.050727606 0.058088116 0.0929675 0.048362587 0.03177762 0.02944436 -0.029960137 0.041599963
-0.015627699 0.018495942 -0.07688118 -0.12203153 -0.07495967 0.059908096 -0.08648752 -0.012905944
0.031758092 0.019786015 0.004714495 0.027711058 0.054293267 0.050909195 0.050709333 0.050236836
0.05479372 -0.041093037 -0.121610224 0.085145816 -0.0802454 -0.11085065 -0.05710177 -0.102128156
-0.09218528 -0.043090653 -0.06392679 -0.08789253 0.021496866 -0.056962285 0.014855634 0.00874033
-0.088512465 -0.07583649 0.07180049 -0.09416158 -0.079209715 -0.043202702 -0.103167236 -0.013376782
0.07703588 0.025890272 0.08097938 -0.026163714 0.16175579 0.19117783 0.14384598 0.106654346
0.062134944 -0.02141305 0.048379943 -0.020125305 -0.065588385 0.01156682 -0.037921723 0.060521405
0.06966713 0.07053795 0.09564815 0.07191977 0.0364426 -0.037434496 0.02832407 -0.08733122
0.040992994 0.02105694 -0.06509355 0.00916519 -0.09677223 -0.014453648 -0.0016234424 -0.10608268
-0.1215722 -0.10261876 -0.124934934 -0.13311574 0.03234134 -0.0045080986 -0.072365485 0.040497456
-0.05603629 0.051366296 0.14292936 0.05272751 0.05683195 -0.074022695 -0.013886244 -0.049083948
0.06958467 0.03421492 -0.1031914 0.049786825 0.036850013 -0.10393917 0.12551078 0.0889554
0.052367166 0.14155872 0.06930628 0.08298437 -0.007518191 -0.09404516 -0.06751105 -0.017489273
0.023593443 -0.05463805 0.002507052 0.08529445 -0.0017457628 0.044484984 0.07476338 -0.028613338
-0.055716958 -0.09800134 0.0014714537 -0.028286293 0.09067043 0.06514973 -0.04729087 -0.027971169
00000000: c525 fabd 98b6 96bc d963 933d a62e bebd
00000010: 79f4 35bd d1b5 013e b8ba 9fbc 7b87 d03d
00000020: 7c7f 063d 0642 323d c835 883d 309f 8abd
00000030: 4ad5 b03d be3b 8fbd 34d8 e5bd 818a d1bd
00000040: 8d6b 9abd b36c 833d ae56 d83d 259e 6ebb
00000050: 4ff5 a33d 5d15 923d 7f4c 453c a18e f43c
00000060: 70b2 c43d b45d 4a3d 1ab1 973d 92ae 6cbd
00000070: 7773 b13d ac59 91bc d6fe 0f3e ccce 49bd
00000080: 28d5 ff3d eb69 913d 481d 763d 492f 8cbd
00000090: 8bf9 213d 83fb b4bd 3373 d2bd d5aa 153d
000000a0: 4106 10be b1d5 8dbd a36b 9dbd 0fa5 a3bc
000000b0: 8baa 0cbe b5e1 c43d 9b06 833a 81b3 c23d
000000c0: 6d8b a8bc 0d3e 1a3e d9ff f13d dd08 8f3d
000000d0: 3fb8 4dbd 35b3 443c a8c6 8c3d c7de e9bc
000000e0: ce4e 513d cc7b 42bd f055 673d 3af4 613c
000000f0: 02d7 67bd f1a0 82bc 1e79 d93d cccd 74bd
00000100: 499a 8f3d 50ca c13c ae44 3e3d 3e86 1d3d
00000110: b61f f4bb 84c3 c13c 8ef5 103d cc5d 8f3b
00000120: f58b 8abb 0276 5dbd 6c74 53bd 9067 05be
00000130: f937 85bd 0d31 9e3c 5e29 58bd d954 24bd
00000140: c1dd a5bd 2eb8 bbbd e7a9 13bc 51ce a63d
00000150: 14a3 f73c 3e72 2bbd 7a11 d8bc 23e7 913c
00000160: a9f3 803c be23 96bc 9378 5abc 74b3 debc
00000170: cfc5 10bb 1546 023d 96be 2b3c fef9 803d
00000180: 2512 c23d e217 013d c8ac 50bc 940b 8fbd
00000190: 5f59 adbd 1d8d 473d bfd2 723d 4360 183c
000001a0: 0d0a 81bd 4a2e 4cbd 21d6 4cbd 757a 5fbd
000001b0: 5f9d c3bd d8e5 f93c 814c ac3d cc6f 65bd
000001c0: 6191 14bd 1a0d 583d 1b01 5c3d 9090 453d
000001d0: 0834 a8bd 9320 babd 0172 113c 6157 1dbd
000001e0: f7c3 9c3d 6d66 1ebc 9c3b 23bd 316f 6e3d
000001f0: a082 07bd 4b87 1dbd 0ad7 e8bc f26a cfbd
00000200: c0c7 4f3d ceed 6d3d bf65 be3d d917 463d
00000210: 4029 023d 4c35 f13c f66e f5bc b964 2a3d
00000220: a905 80bc cd84 973c e173 9dbd abeb f9bd
00000230: 7584 99bd 3162 753d 5e20 b1bd 7473 53bc
00000240: c614 023d 4816 a23c 0d7c 9a3b 4d02 e33c
00000250: 9e62 5e3d 2986 503d 97b4 4f3d 24c5 4d3d
00000260: 616f 603d 2c51 28bd c80e f9bd ee60 ae3d
00000270: b357 a4bd aa05 e3bd 8ce3 69bd 9128 d1bd
00000280: a3cb bcbd d37f 30bd 0dec 82bd 0001 b4bd
00000290: 321a b03c 4951 69bd 0c65 733c 9a33 0f3c
000002a0: 0646 b5bd 2950 9bbd 230c 933d c9d7 c0bd
000002b0: b438 a2bd 51f5 30bd 5849 d3bd 4a2a 5bbc
000002c0: fdc4 9d3d d617 d43c 84d8 a53d 4955 d6bc
000002d0: 4fa3 253e 1fc4 433e 5c4c 133e 986d da3d
000002e0: 3681 7e3d 6c6a afbc 0c2a 463d d3dd a4bc
000002f0: 3453 86bd c282 3d3c cf53 1bbd 4be5 773d
00000300: a4ad 8e3d 3376 903d 2de3 c33d ac4a 933d
00000310: d644 153d ea54 19bd e107 e83c b6da b2bd
00000320: 45e8 273d 9b7f ac3c c44f 85bd 9829 163c
00000330: 8530 c6bd fece 6cbc b0c9 d4ba e041 d9bd
00000340: d8fa f8bd c929 d2bd e3dd ffbd 7e4f 08be
00000350: 5a78 043d acb8 93bb 5b34 94bd a9e0 253d
00000360: 4f86 65bd 7765 523d 135c 123e cdf8 573d
00000370: 9ec8 683d 3699 97bd 2183 63bc 400c 49bd
00000380: 6882 8e3d f224 0c3d 0356 d3bd 45ed 4b3d
00000390: 0af0 163d 0fde d4bd e685 003e 402e b63d
000003a0: f47e 563d c5f4 103e 73f0 8d3d b6f3 a93d
000003b0: 285b f6bb c09a c0bd 3c43 8abd aa45 8fbc
000003c0: 0947 c13c 26cc 5fbd 5a4d 243b dbae ae3d
000003d0: 14d2 e4ba e335 363d 8b1d 993d 8566 eabc
000003e0: 7737 64bd edb4 c8bd cbdd c03a a8b8 e7bc
000003f0: 6bb1 b93d 396d 853d 12b4 41bd cb23 e5bc

conv_block2.4.bias f4 [10]
0.038978066 -0.12204135 -0.084349945 -0.08182084 0.09625521 0.02144515 -0.0994785 0.0054305885
-0.036939573 0.020356731
00000000: 77a7 1f3d d1f0 f9bd aabf acbd af91 a7bd
00000010: 7421 c53d bdad af3c 62bb cbbd 14f3 b13b
00000020: f34d 17bd 29c3 a63c

conv_block2.6.weight f4 [10, 10, 3, 3]
-0.08958848 0.027495595 0.016920827 -0.09262046 -0.019859122 -0.01000785 0.04079087 -0.09034869
0.11120124 0.034678154 -0.05235025 0.06892972 -0.026936006 -0.0021180096 0.10062492 -0.016670771
-0.07109805 0.06630163 -0.015337866 0.11444636 0.16205116 0.20375337 0.10973004 0.022419252
0.15422238 0.026717184 0.048252452 0.066354565 0.031417664 0.0077049844 0.07852615 -0.08745972
-0.00029896005 0.07431714 0.06483303 0.07616386 0.16472144 0.028057389 0.117728345 0.009649574
0.032596167 -0.06582144 0.052471567 -0.021173019 -0.13342014 0.18542889 0.16756651 0.1535347
0.10514232 0.10494644 -0.013357776 0.08077062 -0.13756922 -0.103704944 0.07729266 0.024800275
-0.09220673 -0.018442728 -0.0085062 0.051375255 0.04827243 0.021264022 0.070947416 -0.0012539375
-0.025253363 0.02018717 -0.059500318 0.044440806 -0.10473827 0.05916749 0.057231482 -0.06608471
0.103480645 -0.009978508 0.22871713 0.10946935 0.11860032 0.30388996 0.061920416 0.24883027
0.1845243 -0.07592386 -0.10320828 -0.08308346 -0.061109256 -0.0005944406 -0.018570935 0.04006966
0.047115136 0.0012830314 0.07819124 0.031941064 -0.035210658 -0.078230485 -0.03588121 -0.06499649
-0.073297724 -0.11090241 0.007012727 0.03391582 0.06370106 0.025254983 -0.062183097 0.0077320277
-0.048384342 -0.08116374 0.008848169 0.1010843 -0.011840793 -0.041014384 0.032413322 -0.072397076
-0.0978438 -0.06347184 0.04109185 0.08330612 -0.023502745 0.09673669 0.06270334 -0.015509795
0.074795954 -0.005000822 -0.06728953 -0.0024395925 -0.04567235 -0.03630959 -0.08562634 -0.019312777
-0.030276205 -0.0730967 -0.046336744 -0.044934146 -0.10696012 0.059801333 -0.09603616 0.017463282
0.015745606 0.038758975 -0.00449328 -0.10905549 -0.114123665 -0.021549203 -0.0044569653 0.07390836
-0.06070035 0.0689861 0.045972005 0.08554873 -0.0531756 -0.01936311 -0.07052754 -0.0014372971
-0.09719673 0.09684023 0.02730407 0.07097777 0.096075535 -0.09015294 0.011742429 0.009158531
0.080466405 -0.09624839 0.084105425 0.0392977 -0.06717592 0.0826765 -0.038662918 0.057220496
-0.086502105 -0.020717498 0.07142506 0.021747183 -0.023804575 0.022624034 0.0108201 0.057504397
0.008267195 -0.09826497 -0.0015767126 -0.07042638 0.082877144 0.06259605 0.065624386 0.08242017
0.118048005 0.12631075 0.13290101 -0.03971045 0.122043505 -0.037822835 -0.0007869687 0.0033182392
3.5622264e-07 -0.026791468 0.0051942263 0.100270465 0.0785772 0.118275665 0.15467982 0.03642361
-0.07253727 -0.07638643 -0.09953558 -0.007870944 -0.058331665 -0.12387978 -0.119374074 -0.0045330212
0.07051057 -0.09616769 0.031036425 -0.044357087 -0.026814595 0.09907869 0.07035236 -0.072027504
-0.01993676 -0.09678444 -0.012134887 0.057515774 -0.06787085 -0.07978482 -0.09309057 -0.073048346
-0.06430683 -0.10444255 -0.11958936 -0.11733017 -0.09320188 -0.17182583 -0.02388543 -0.01663904
0.013827499 -0.04780659 0.05345375 -0.0778264 0.086650364 0.0037543357 -0.06468255 -0.061856452
0.035404615 0.10528448 -0.015132186 0.091432095 -0.084505975 -0.05080681 -0.06774617 -0.07818861
-0.07292112 0.0558277 -0.051671207 -0.090836644 0.0045064837 -0.09867684 -0.14981528 0.008679243
00000000: 2a7a b7bd 713e e13c 8c9d 8a3c ccaf bdbd
00000010: 99af a2bc f7f7 23bc 5414 273d bc08 b9bd
00000020: 7abd e33d ae0a 0e3d 376d 56bd 062b 8d3d
00000030: e6a8 dcbc 4ece 0abb 7014 ce3d 2491 88bc
00000040: db9b 91bd 26c9 873d ac4b 7bbc da62 ea3d
00000050: bdf0 253e b9a4 503e 25ba e03d 94a8 b73c
00000060: 79ec 1d3e ffdd da3c 5da4 453d e7e4 873d
00000070: cfaf 003d 187a fc3b 51d2 a03d 151e b3bd
00000080: bdbd 9cb9 9633 983d 2ec7 843d ccfb 9b3d
00000090: bdac 283e 9cd8 e53c 8f1b f13d 3f19 1e3c
000000a0: 8f83 053d 64cd 86bd 6dec 563d 0a73 adbc
000000b0: 4a9f 08be 12e1 3d3e 8e96 2b3e 3338 1d3e
000000c0: db54 d73d 29ee d63d 93da 5abc 116b a53d
000000d0: f2de 0cbe 4263 d4bd 9d4b 9e3d f229 cb3c
000000e0: e2d6 bcbd 3415 97bc 975d 0bbc dc6e 523d
000000f0: 50b9 453d e331 ae3c e14c 913d 295b a4ba
00000100: 24e0 cebc 905f a53c 9bb6 73bd 9007 363d
00000110: 0581 d6bd 9c59 723d 8f6b 6a3d 6c57 87bd
00000120: a9ed d33d e57c 23bc d334 6a3e 7731 e03d
00000130: b9e4 f23d 7797 9b3e 43a0 7d3d 5dcd 7e3e
00000140: f0f3 3c3e f87d 9bbd dd5e d3bd a927 aabd
00000150: b34d 7abd 3cd4 1bba 1322 98bc 1520 243d
00000160: cdfb 403d 642b a83a bb22 a03d a2d4 023d
00000170: 0d39 10bd 4e37 a0bd 2df8 12bd e11c 85bd
00000180: 1e1d 96bd cd20 e3bd 05cb e53b 51eb 0a3d
00000190: b475 823d 8ae3 ce3c b4b3 7ebd f35c fd3b
000001a0: a92e 46bd 2d39 a6bd e9f7 103c 4905 cf3d
000001b0: e3ff 41bc b3fe 27bd d5c3 043d eb44 94bd
000001c0: 5562 c8bd 86fd 81bd ed4f 283d 669c aa3d
000001d0: d488 c0bc e31d c63d 9c6a 803d cc1c 7ebc
000001e0: 9f2e 993d efdd a3bb 18cf 89bd 92e1 1fbb
000001f0: ee12 3bbd 5db9 14bd dd5c afbd d435 9ebc
00000200: ce05 f8bc b9b3 95bd 99cb 3dbd de0c 38bd
00000210: e80d dbbd 3ef2 743d 9bae c4bd 280f 8f3c
00000220: eefc 803c bbc1 1e3d 5d3c 93bb 7c58 dfbd
00000230: abb9 e9bd f487 b0bc bc0b 92bb 445d 973d
00000240: eea0 78bd 9648 8d3d 244d 3c3d 2c34 af3d
00000250: a8ce 59bd 639f 9ebc be70 90bd b063 bcba
00000260: 140f c7bd 2c54 c63d c9ac df3c cb5c 913d
00000270: 40c3 c43d 1ba2 b8bd 5163 403c aa0d 163c
00000280: 92cb a43d e01d c5bd 773f ac3d a0f6 203d
00000290: 8793 89bd 4c52 a93d 025d 1ebd 0a60 6a3d
000002a0: 0428 b1bd beb7 a9bc 4d47 923d 2627 b23c
000002b0: d001 c3bc 0a56 b93c ca46 313c bb89 6b3d
000002c0: 2173 073c 253f c9bd b2a9 ceba b53b 90bd
000002d0: 7ebb a93d 5c32 803d 1466 863d e8cb a83d
000002e0: 27c3 f13d 9b57 013e 3417 083e 6da7 22bd
000002f0: f2f1 f93d 1eec 1abd 934c 4eba d176 593b
00000300: de3e bf34 c879 dbbc 5434 aa3b 9a5a cd3d
00000310: 15ed a03d 833a f23d 6364 1e3e ec30 153d
00000320: 6c8e 94bd 7d70 9cbd 4fd9 cbbd 22f5 00bc
00000330: 2fed 6ebd afb4 fdbd 657a f4bd bd89 94bb
00000340: d967 903d 91f3 c4bd 1a40 fe3c c7af 35bd
00000350: 48aa dbbc c5e9 ca3d e614 903d 2883 93bd
00000360: 6b52 a3bc ec36 c6bd 68d1 46bc a995 6b3d
00000370: dfff 8abd 3966 a3bd 45a6 bebd 5f9a 95bd
00000380: 4db3 83bd fae5 d5bd 44eb f4bd cd4a f0bd
00000390: a1e0 bebd 1cf3 2fbe 61ab c3bc 994e 88bc
000003a0: bc8c 623c d8d0 43bd 52f2 5a3d 7363 9fbd
000003b0: bf75 b13d 4d0b 763b 4978 84bd 315d 7dbd
000003c0: 6e04 113d 649f d73d fdec 77bc c040 bb3d
000003d0: 7811 adbd cd1a 50bd 81be 8abd 5a21 a0bd
000003e0: ab57 95bd 96ab 643d 30a5 53bd 9008 babd
000003f0: 20ab 933b 1517 cabd 2d69 19be 6233 0e3c

conv_block2.6.bias f4 [10]
-0.0006146396 0.003453179 -0.070307225 0.060723934 0.038548566 0.0767204 -0.09237255 0.065455824
-0.04647378 -0.10450203
00000000: c41f 21ba bb4e 623b 3cfd 8fbd a9b9 783d
00000010: 1ae5 1d3d 961f 9d3d d22d bdbd b40d 863d
00000020: 4a5b 3ebd 2905 d6bd

classifier.1.weight f4 [3, 1210]
-0.17039225 -0.14463362 -0.049870167 -0.07797405 -0.10341925 -0.09255936 0.004539659 0.033983544
-0.11766803 -0.1447546 -0.17540702 0.028475467 0.047139212 -0.044705003 -0.08945193 -0.053967476
0.017208802 0.1378533 0.07475737 -0.02875053 -0.013361619 -0.054870132 -0.050269913 -0.04045107
-0.097770475 -0.096294925 -0.0077985288 0.0050828573 0.048063334 -0.01906335 0.0015317237 -0.0021648987
-0.083929986 -0.07256678 0.007874008 0.0026049172 0.06988055 0.0031301086 -0.12048999 -0.051697314
-0.025175083 -0.0756716 -0.071533464 -0.033300795 0.08754016 -0.044084642 -0.07784913 -0.04737761
-0.029525807 -0.07795677 0.02696617 0.009744853 -0.047327813 -0.022832885 0.08128148 0.068098344
-0.014871045 0.0029264102 0.0058283205 0.050903697 0.1504341 0.16012102 0.07004501 0.07498496
-0.08218699 0.0066796257 0.07075979 0.11829841 0.058306042 0.008610623 0.062055 0.060173202
-0.07971945 0.038253523 0.013403355 -0.029470937 0.004424212 0.04154949 0.035904873 -0.080155544
-0.089071095 -0.02326358 -0.15056267 -0.19651268 -0.042886842 0.017546345 0.009322365 -0.032554343
0.0723134 -0.055073075 -0.11060833 -0.01019728 0.018464567 -0.089117944 -0.11041914 0.017288623
0.025083873 -0.042390782 -0.022075843 0.042317014 -0.03511062 -0.053725857 0.024221968 -0.07984741
-0.053554334 -0.020468006 -0.012599435 0.05017053 0.038382858 -0.08435528 -0.021703046 -0.03687752
0.027955044 0.0012950425 -0.065639645 -0.04987264 -0.11641192 0.01936495 0.1304932 0.014460924
-0.12127578 0.007997098 0.0015239415 -0.0018152854 -0.028278258 -0.0284551 0.027179714 -0.0027768668
0.012517052 -0.031422623 -0.029054686 0.018892875 -0.016675204 0.018363206 -0.009830071 -0.010687871
0.02751646 -0.020029515 -0.019481732 -0.00619163 0.0112031875 -0.007503469 -0.004174043 0.027993273
0.0005313863 0.005202357 0.0028012053 -0.028121447 -0.011766367 -0.021333937 -0.018480921 -0.016078167
-0.022055322 0.019556029 -0.0033943262 0.015798237 0.013333493 0.027288007 -0.00052807754 0.017003452
-0.01639603 -0.0108988015 0.01316861 -0.013056396 -0.035893805 0.016153896 0.0040711323 -0.019185672
0.011732317 -0.028343886 -0.00991953 0.014304223 -0.012052572 -0.021413814 0.016029062 0.018567959
-0.0014711327 0.020374198 -0.027216364 0.028344573 0.008997227 -0.032186776 -0.019582525 0.012414892
-0.023102412 -0.0081781335 -0.0032851624 0.029014822 -0.016599588 0.0014159073 0.00038082668 0.032161653
0.029363276 -0.0038589244 0.02788972 0.00564306 -0.014270261 0.004542664 0.03352015 0.027910616
0.034441326 0.025355354 -0.006618534 0.01067819 0.005125058 0.000864229 -0.009941936 -0.013909805
-0.0051900297 0.018444005 -0.008987651 -0.004662652 0.0028962665 -0.0008558825 -0.006885381 -0.019221049
-0.006050144 -0.023720993 0.022600785 -0.00607572 -0.00561079 -0.003464788 -0.018381951 -0.027083484
0.0057599046 0.024189306 0.019136965 -0.020093339 -0.028410831 -0.027203402 -0.011013305 -0.011612816
0.009388709 -0.003004159 0.010311957 0.004960052 0.009503769 0.014357219 0.022580646 -0.017720995
-0.018326499 0.02442773 0.0055587376 0.004129079 -0.03276676 -0.043560002 -0.038109172 -0.049625687
-0.08338441 -0.00058896 0.00518161 0.0017805343 0.008603735 -0.015720494 -0.036716186 -0.010645447
00000000: 4e7b 2ebe d61a 14be a944 4cbd dcb0 9fbd
00000010: 79cd d3bd c38f bdbd 6bc1 943b 5432 0b3d
00000020: f0fb f0bd 8d3a 14be e69d 33be 6245 e93c
00000030: 0c15 413d 981c 37bd 9332 b7bd 000d 5dbd
00000040: 79f9 8c3c 6a29 0d3e 641a 993d 3b86 ebbc
00000050: b1ea 5abc 81bf 60bd d3e7 4dbd 05b0 25bd
00000060: e33b c8bd 4636 c5bd cd8a ffbb 198e a63b
00000070: 0fde 443d be2a 9cbc 1ec4 c83a f9e0 0dbb
00000080: 7ce3 abbd e49d 94bd fc01 013c 42b7 2a3b
00000090: 891d 8f3d 8222 4d3b 75c3 f6bd 90c0 53bd
000000a0: fa3b cebc b6f9 9abd 2380 92bd 6a66 08bd
000000b0: 4148 b33d 1992 34bd 5d6f 9fbd 060f 42bd
000000c0: 1be0 f1bc cda7 9fbd 28e8 dc3c e0a8 1f3c
000000d0: cfda 41bd 080c bbbc e876 a63d 2577 8b3d
000000e0: afa5 73bc 04c9 3f3b 7ffb be3b 6580 503d
000000f0: 660b 1a3e c4f6 233e c273 8f3d b791 993d
00000100: a751 a8bd c3e0 da3b 82ea 903d 7046 f23d
00000110: 51d2 6e3d 9213 0d3c 622d 7e3d 2d78 763d
00000120: f343 a3bd baaf 1c3d bf99 5b3c 096d f1bc
00000130: fbf8 903b cc2f 2a3d fd10 133d 9728 a4bd
00000140: e86a b6bd 4393 bebc 1a2d 1abe 9f3a 49be
00000150: 1daa 2fbd 5abd 8f3c d5bc 183c b457 05bd
00000160: 0c19 943d 4e94 61bd 9f86 e2bd 7e12 27bc
00000170: 0143 973c 7883 b6bd 6e23 e2bd dfa0 8d3c
00000180: b27c cd3c f5a1 2dbd 66d8 b4bc 9b54 2d3d
00000190: 27d0 0fbd a50f 5cbd 266d c63c 0a87 a3bd
000001a0: ca5b 5bbd 85ac a7bc dc6d 4ebc 9d7f 4d3d
000001b0: 5837 1d3d 76c2 acbd 96ca b1bc e20c 17bd
000001c0: fa01 e53c 6abe a93a 146e 86bd 4147 4cbd
000001d0: 5f69 eebd 3ea3 9e3c 02a0 053e 83ed 6c3c
000001e0: 705f f8bd 4306 033c febe c73a dfee edba
000001f0: cea7 e7bc ab1a e9bc fea7 de3c 18fc 35bb
00000200: 5214 4d3c 02b5 00bd 1804 eebc 3bc5 9a3c
00000210: 709a 88bc 6f6e 963c 4e0e 21bc 2e1c 2fbc
00000220: 336a e13c f014 a4bc 2798 9fbc 28e3 cabb
00000230: 938d 373c a9df f5bb 69c6 88bb 2652 e53c
00000240: bb4c 0b3a 8978 aa3b 6d94 373b f35e e6bc
00000250: b8c7 40bc 82c4 aebc 4d65 97bc 5cb6 83bc
00000260: 5dad b4bc f733 a03c 5873 5ebb 4e6b 813c
00000270: b974 5a3c 198b df3c af6e 0aba d34a 8b3c
00000280: f850 86bc e390 32bc 27c1 573c 7eea 55bc
00000290: 6205 13bd 2d55 843c 2267 853b 452b 9dbc
000002a0: e738 403c 7031 e8bc 8685 22bc 425c 6a3c
000002b0: 2778 45bc 066c afbc 614f 833c d51b 983c
000002c0: 06d3 c0ba cae7 a63c daf4 debc e132 e83c
000002d0: 1b69 133c 48d6 03bd 886b a0bc d567 4b3c
000002e0: 4541 bdbc 94fd 05bc e14b 57bb 7eb0 ed3c
000002f0: dcfb 87bc f795 b93a b1a9 c739 f0bb 033d
00000300: 418b f03c 02e6 7cbb fb78 e43c 6be9 b83b
00000310: d0cd 69bc a1da 943b 6d4c 093d cea4 e43c
00000320: 5912 0d3d 08b6 cf3c 4ae0 d8bb 93f3 2e3c
00000330: 1af0 a73b 6d8d 623a 80e3 22bc f3e5 63bc
00000340: 2011 aabb e217 973c f140 13bc 29c9 98bb
00000350: 4acf 3d3b 4d5d 60ba c39e e1bb 7675 9dbc
00000360: 4940 c6bb 8752 c2bc 4825 b93c d516 c7bb
00000370: b8da b7bb 7f11 63bb bf95 96bc 2fde ddbc
00000380: 95bd bc3b a728 c63c 20c5 9c3c c99a a4bc
00000390: d5bd e8bc abd9 debc 2671 34bc ae43 3ebc
000003a0: 1ad3 193c 6de1 44bb 7cf3 283c ef87 a23b
000003b0: b2b5 1b3c 8b3a 6b3c 0cfb b83c 9f2b 91bc
000003c0: 7421 96bc aa1c c83c 1226 b63b 3a4d 873b
000003d0: 7036 06bd f96b 32bd 5d18 1cbd 4e44 4bbd
000003e0: 72c5 aabd 7064 1aba 7fca a93b d160 e93a
000003f0: aef6 0c3c 44c8 80bc b663 16bd 3e6a 2ebc

classifier.1.bias f4 [3]
0.02801585 -0.0064085014 -0.018928235
00000000: 7f81 e53c 68fe d1bb 630f 9bbc
